data/hsc_deep_aa_7arch.pt (torch, 387086 bytes, 43 tensors)

archetypes f4 [7, 13]
000000 bd 77 13 c1 e2 b6 2c 41 23 37 08 c0 62 1a 44 c0
       -9.216733 10.794649 -2.1283653 -3.0641103
000010 25 10 97 40 4c 2f 4a c0 69 e7 02 40 4d fd d6 3e
       4.720721 -3.1591368 2.0453742 0.41990128
000020 2c d2 1a 3f 5f 37 66 bf 41 38 1b bf 56 e3 83 bf
       0.60476947 -0.8992824 -0.6063271 -1.0303752
000030 ce 74 67 3f 0a 7d 9f 41 7c 25 e6 40 7c d4 ac be
       0.90412605 19.936054 7.1920757 -0.33755863
000040 5f f6 41 bf ef 53 9d 3f e2 f0 1c c0 26 11 8d 3f
       -0.7576656 1.229124 -2.4522023 1.1020858
000050 af ca ea be 22 a6 76 bf 5f 2e 3c bf ec 37 e2 be
       -0.4585776 -0.9634725 -0.73508257 -0.4418329
000060 68 a0 15 bf db 51 7f 3f d6 2b 72 c0 29 30 1b c1
       -0.58447886 0.99734277 -3.7839255 -9.699258
000070 9c 37 f8 40 64 df a3 40 47 2d 7d 40 80 0c 40 c0
       7.7567883 5.1210194 3.9558885 -3.000763
000080 93 28 a9 bf 12 79 5e bf b3 1c 95 c0 ac 1b 78 3e
       -1.3215507 -0.8690349 -4.6597533 0.24229306
000090 53 69 45 c0 d5 2f 77 3f 57 0e 0b bf 2f 63 97 c0
       -3.0845535 0.9655736 -0.54318756 -4.7308574
0000a0 73 63 17 41 a8 51 46 c0 03 8a 1f 41 e1 da 39 c1
       9.46178 -3.098734 9.971194 -11.615937
0000b0 21 96 44 40 9a 16 9b bf 65 87 b3 bf 87 98 f7 bf
       3.0716631 -1.2116272 -1.4025694 -1.9343423
0000c0 a7 91 9c 3f 12 3a df be ba 21 c3 3c 20 68 f3 3b
       1.223195 -0.43598992 0.023819793 0.007428184
0000d0 02 a2 8e be 25 0d 15 c1 f3 a1 b6 c0 ec 72 07 c0
       -0.27857977 -9.315709 -5.707269 -2.1163893
0000e0 2c 03 26 c0 91 44 f0 bf 9f 15 71 40 f6 cc 16 3f
       -2.5939436 -1.8770925 3.7669446 0.58906496
0000f0 a8 25 06 3f 18 66 93 bf 07 de 51 3f 80 84 29 bf
       0.5240121 -1.1515532 0.8197941 -0.66217804
000100 f0 c3 61 3b 8c 7e 5b 3e be 47 7f c0 dc b6 ba c0
       0.0034449063 0.21434993 -3.9887538 -5.8348217
000110 14 84 92 c0 13 68 62 40 b0 de 1b 41 ab 28 11 c1
       -4.578623 3.5376022 9.741867 -9.072429
000120 1d af bb be bb d6 06 3e 2e 37 8a 3f 09 06 09 3f
       -0.36657038 0.1316785 1.079809 0.53524834
000130 de ba 4b 3f 88 d1 99 bf 76 28 46 c0 7a 05 38 c0
       0.7958201 -1.2017069 -3.0962195 -2.8753343
000140 9d fc c9 41 00 fa 3b be c9 94 99 bf e4 1c 20 40
       25.248346 -0.18357086 -1.1998531 2.5017633
000150 a7 d3 58 be c0 12 86 be 87 33 d2 40 20 b7 4a be
       -0.21174489 -0.2618618 6.56879 -0.19796419
000160 e8 62 9f 40 60 ee 34 be 7a 23 b0 be
       4.9808235 -0.17669058 -0.34402066

encoder.0.0.weight f4 [64, 13]
000000 ea b5 93 3d b3 f7 24 3e cd 37 0b 3e 4d e5 95 3e
       0.07212432 0.16110115 0.13595505 0.29276505
000010 07 4a a2 3c 98 d5 c5 3e 5b d5 6f 3c 82 73 09 bc
       0.01981069 0.38639522 0.01463827 -0.008389356
000020 44 5e d2 bb 0f 0b b7 3c 14 8a a0 3c 7d 45 2f 3c
       -0.0064199287 0.02234414 0.01959709 0.01069772
000030 57 9c 08 bc 00 c8 98 3d 0b 41 92 bb 3e 43 6d 3d
       -0.008338056 0.07460022 -0.00446332 0.057925455
000040 31 30 e5 3e 62 a2 24 bd f3 da 11 bf 62 4b a6 ba
       0.4476333 -0.040193923 -0.56974715 -0.0012687261
000050 40 4d 85 bb bd 81 24 bc bf 38 47 3b f8 52 a4 3a
       -0.004068047 -0.010040698 0.0030398814 0.0012536934
000060 3f a2 3b 3b 1b 76 a4 3b fd fb bd 3d e3 b7 33 be
       0.0028630642 0.005018962 0.092765786 -0.17550616
000070 b9 ec c1 3d 7a ec 00 bf 93 09 23 3f fa ca 49 be
       0.094689794 -0.50360835 0.63686484 -0.19706336
000080 d3 cd ec 3c 80 85 c7 3c db 5b 18 bd c9 c5 10 3c
       0.028906738 0.02435565 -0.037196975 0.008836218
000090 b7 83 01 3b 2a b9 89 3b 4f d0 ad 3b 18 79 9e 3c
       0.0019762346 0.0042029815 0.0053043733 0.019344851
0000a0 59 10 bf 3d f8 c5 03 3b c5 12 2b 3e 53 f9 62 3e
       0.0932929 0.0020107012 0.16706379 0.22165422
0000b0 71 75 c0 3e 6e b1 e6 ba 6c 6b 32 3b f0 de d3 3b
       0.375896 -0.0017600486 0.0027224673 0.006465785
0000c0 05 07 0f bb 3c ef 0f 3c 89 69 0c 3b e5 8d b7 3b
       -0.0021824252 0.008785065 0.0021425209 0.005601632
0000d0 17 71 80 be 1d d7 93 3e f2 51 93 bd 0e 27 19 3d
       -0.2508628 0.28875056 -0.07193364 0.03739076
0000e0 d7 81 5e 3d 90 bf 2a bd 99 fd 05 bb f5 14 d5 39
       0.054323044 -0.041686594 -0.0020445345 0.0004064214
0000f0 23 f5 cb 38 e6 8a 19 bb 0f 64 13 bc f3 b9 54 3a
       9.7254546e-05 -0.0023428737 -0.008996024 0.0008114867
000100 a5 b8 f9 3a ca 3b 9f bb 7c 03 80 3e 58 3a d9 be
       0.0019052221 -0.0048594223 0.25002658 -0.42427325
000110 48 ef 47 bd 58 3f 60 be f7 28 aa 3d e4 38 b9 bb
       -0.04881218 -0.21899164 0.08308595 -0.005652534
000120 b0 3a 59 ba af 36 44 bb 20 7a 16 3c 91 c7 8b 3c
       -0.0008286638 -0.002993982 0.00918439 0.017062934
000130 48 f5 9b ba 53 b1 16 3c 19 9d 68 bd 48 59 b8 3d
       -0.0011898661 0.009197551 -0.056790445 0.09001404
000140 6b ea f7 bc f1 ee 96 bd ed d7 36 3e ff 5a e4 bd
       -0.030263146 -0.07369793 0.17855807 -0.11150169
000150 79 9d 75 3b c4 27 95 bb 44 65 85 3b 65 bf 92 bb
       0.0037477894 -0.0045518596 0.0040709097 -0.0044783824
000160 d2 e3 0d 3b 78 5a 63 ba fa b0 8a 3b f1 76 31 bb
       0.0021650684 -0.00086728437 0.004232523 -0.0027078951
000170 2b 6f 8a 3e 8f 89 d0 3d f2 1d d8 bc 94 45 ed bd
       0.2703794 0.10182487 -0.026381467 -0.115855366
000180 3c 34 3c 3e af 90 e3 bb 67 f5 29 bc 0f ad 43 3d
       0.18379301 -0.006944738 -0.01037345 0.047772463
000190 f8 2e 44 bc c9 0a b1 3b 09 77 22 3c 32 7e 0a 3b
       -0.011974089 0.005402897 0.0099160755 0.0021132347
0001a0 64 6c 8e 3e e1 42 54 be 68 e6 40 be 56 31 02 bd
       0.2781707 -0.20728637 -0.18837893 -0.03178533
0001b0 e4 3b 1e be 33 50 bf be 44 55 64 3b 6b c4 9e 3c
       -0.15452534 -0.37365875 0.0034840861 0.019380769
0001c0 f1 55 a1 3a d7 85 94 3c f4 ef 76 3a 03 86 74 3c
       0.0012308938 0.018130226 0.0009419911 0.014924529
0001d0 ed 92 c4 ba f6 91 92 be 82 49 1e be 5a 16 4e be
       -0.00149974 -0.28626984 -0.15457729 -0.20125714
0001e0 9d a2 a0 bd 75 2b 26 be e9 7e 15 be bc 5d 88 ba
       -0.07843516 -0.16227515 -0.14599194 -0.0010403912
0001f0 68 3e 85 ba c4 4d 40 bb 2b 74 2c bb 76 8c a1 ba
       -0.0010165693 -0.0029343227 -0.0026314359 -0.0012325186
000200 c4 02 f0 bb 9f 53 04 bb 29 f2 31 3e 0a 0c 08 3e
       -0.0073245484 -0.0020191444 0.17377533 0.13285843
000210 3e a4 88 bf 59 84 d1 bd 3e 87 8b bd dc 35 a1 3b
       -1.0675123 -0.102303214 -0.06812905 0.0049197506
000220 d2 d5 66 3b 37 9b 87 3b 58 52 e7 3b ed e1 81 bb
       0.0035222662 0.004138376 0.0070593767 -0.0039637
000230 a7 d9 58 bb 82 27 1a bb f5 3b 0b 3c 49 91 50 be
       -0.0033088715 -0.0023522084 0.008498182 -0.20367922
000240 a9 16 b8 bc 36 fe 0a 3c b0 74 92 3e 7c 2d ba 3e
       -0.022471743 0.00848346 0.2860465 0.36362827
000250 64 69 fa 3e f5 f7 18 bb 79 fb 9f 3c 5e 2c 0f 3b
       0.48908532 -0.0023341153 0.019529091 0.0021846513
000260 35 ef 8b ba 83 23 1d bc 76 39 98 3b b7 57 1a ba
       -0.0010676148 -0.009590986 0.0046455218 -0.00058877043
000270 2c 9e 5e 3e f1 f9 90 be e0 67 64 3d 6c fb 1e bf
       0.21740025 -0.2831569 0.055763125 -0.6210239
000280 d8 84 66 3f b3 93 9a be 31 ac 2d ba 6b 41 1f bc
       0.90046453 -0.3019081 -0.0006625085 -0.009720187
000290 30 4f 8f bb 73 d6 db 3b 37 bf f2 3b 65 63 7d 3b
       -0.0043734536 0.006708914 0.0074080485 0.003866398
0002a0 68 66 1f 3b a2 a4 ed bd f0 d5 b5 be cc 80 34 be
       0.0024322513 -0.11603667 -0.35514784 -0.17627257
0002b0 1d 94 05 3f dc 11 8f 3d a1 05 a2 be 8d da 17 3a
       0.5217913 0.06985828 -0.3164492 0.00057927595
0002c0 99 e7 b2 bb 96 23 ab bb d1 03 69 bc 81 4b 97 3a
       -0.0054597375 -0.005222748 -0.014222101 0.0011542888
0002d0 d2 52 d9 bb 5f a9 b1 3b 6e be 6b 3e 86 62 95 be
       -0.0066321874 0.005421802 0.23021862 -0.2917673
0002e0 e6 8d 0e 3d c4 f6 34 bd 99 b1 03 be 6a ed 00 3e
       0.034803294 -0.044180647 -0.12860717 0.12590566
0002f0 a1 57 40 3b 41 ff 94 3a c3 61 cb 3b 68 64 96 3a
       0.0029349106 0.0011367575 0.0062067225 0.0011474015
000300 b3 c0 00 bb 65 ac a8 3a 6e 55 2b 3b ab ac 50 3b
       -0.0019646108 0.001286876 0.002614345 0.00318412
000310 ad 94 50 bc 38 9d 78 be ed 60 7e 3e 6a d7 57 3d
       -0.01273076 -0.24278724 0.24841662 0.05269567
000320 9d 13 d1 bc c6 57 02 3b bd eb 3f 3d 14 7b 7b bc
       -0.025522048 0.0019888743 0.046855677 -0.015349168
000330 b6 7c 65 bc f2 87 d2 3a 65 fc 1f 3c 6a 23 8c 3b
       -0.014006784 0.0016062243 0.009764765 0.0042766826
000340 a5 ad 56 be 8f 0d 34 3e ac d8 36 3e 8b 53 d3 3e
       -0.20964678 0.17583297 0.17856091 0.41274676
000350 1a 79 c5 be 7b 8a ca be b5 f6 6c b9 0e 1f 15 3b
       -0.38568956 -0.39558777 -0.0002259862 0.0022754106
000360 f6 70 72 3b f1 14 15 3c 45 c9 5d 3c d5 82 f9 3b
       0.00369936 0.009099231 0.013536756 0.0076144733
000370 d7 79 24 bb b9 1d 88 3e fd bc 64 be 51 70 6f be
       -0.0025097036 0.26585177 -0.22337718 -0.23382689
000380 74 ee 07 bf fb 4e fd 3e a1 7a 03 3f 2a 09 62 ba
       -0.53098226 0.4947432 0.5135899 -0.00086225814
000390 f8 62 cf bb ed bd 1b bc 4a 7c 37 bc 1f fa 2e bc
       -0.0063289367 -0.009505731 -0.011199066 -0.010679751
0003a0 54 c4 0c bc c1 70 c8 3b 6d f6 2a 3e b1 40 a4 3c
       -0.00859173 0.006116957 0.16695566 0.020050379
0003b0 a9 83 01 bc 5a 79 6d be 86 4a 97 be d0 d4 cd be
       -0.007904925 -0.23190823 -0.29549044 -0.40201426
0003c0 5a 25 f2 3a ef c2 95 bc e9 e8 01 bb 59 3e 84 ba
       0.0018474266 -0.018281428 -0.0019822663 -0.0010089382
0003d0 19 33 11 3c 54 93 c2 bb 27 59 bd 3a b2 c6 e6 3d
       0.00886228 -0.005937973 0.0014446125 0.11268367
0003e0 31 a0 17 be 58 f7 57 3d a1 d2 b3 3c cd 02 55 be
       -0.14807202 0.05272612 0.021951022 -0.2080185
0003f0 47 ba 17 3e 85 13 95 3a 04 97 3a 3b b3 72 76 3c
       0.14817153 0.0011373615 0.002847136 0.015041995

encoder.0.0.bias f4 [64]
000000 5a df c4 be 50 22 1d bf 52 12 a2 bd 74 17 f1 3e
       -0.38451654 -0.6138048 -0.079136506 0.47088206
000010 78 44 02 bf 4b 12 1d 3f 63 d7 a4 3d 82 eb a5 3c
       -0.50885725 0.6135604 0.08048894 0.0202539
000020 a3 3a ec 3e 2e 06 b2 bd 20 2f 12 bf a2 b9 6a be
       0.46138486 -0.08692585 -0.5710316 -0.22922376
000030 27 dd 92 be 4a 2a 38 3e ee 0f 07 be de 98 85 3e
       -0.2868435 0.17984882 -0.1318967 0.2609319
000040 8b 9f df 3d 3e c8 42 3f ce 55 58 3e 3b 39 a8 3d
       0.10919102 0.76086795 0.21126482 0.08214041
000050 6b 5d 38 bf a0 63 e8 3e 5f 5b f4 bf 61 fc f1 3d
       -0.72017545 0.45388508 -1.9090384 0.118157156
000060 c8 31 4b 3e 08 49 85 3f 5c 43 a4 3f 74 75 04 3e
       0.19843209 1.0412912 1.2833056 0.1293543
000070 6a aa fe be 94 21 93 be e6 9d 86 3f 0d a2 d9 3e
       -0.4973939 -0.28736556 1.0516937 0.42506447
000080 1a d3 d8 bf 18 4e 20 3e 97 c2 75 3e 9e 03 a2 3f
       -1.6939423 0.1565479 0.24000011 1.2657354
000090 74 8f bb 3e eb ff dd be 24 ad d0 bf b5 7e 7f 3f
       0.36632884 -0.43359312 -1.6302838 0.99802715
0000a0 63 da f2 3e 09 5b 3a be 3f 76 88 bf 7c 6c 63 bf
       0.4743224 -0.1819879 -1.0661086 -0.8883741
0000b0 84 3a 8e 3e 7e 01 68 3e 8d bb b4 3e be c4 49 3f
       0.2777902 0.22656819 0.3529934 0.7881583
0000c0 8e f1 52 3f a9 1c bf 3e 3b 0f be 3e 9f a8 2e be
       0.82399833 0.37326553 0.37120995 -0.17056511
0000d0 ea 45 d3 3e 66 21 95 be c2 e9 3a 3f dd ea 23 3f
       0.41264278 -0.29127043 0.73012936 0.6403025
0000e0 61 1d b4 be 3b 14 f6 be fe d5 21 3f a5 ae e0 3d
       -0.35178664 -0.4806231 0.6321715 0.10970811
0000f0 03 2d f5 bd 9f 99 67 3d 58 7b 93 3e 68 26 74 bc
       -0.11971476 0.05654299 0.2880504 -0.014901735

encoder.0.1.weight f4 [64]
000000 af e3 cb 3e 32 b2 04 3f 7c 46 f8 3e 6b 02 b7 3e
       0.39822146 0.51834404 0.48491275 0.35744032
000010 20 0a 39 3f 5f 67 10 3f 40 3a b2 3e 73 1c 3e 3e
       0.72281075 0.5640773 0.34810066 0.1856554
000020 c6 5e 2d 3f fb ca 14 3f 8b 15 63 3f 08 fd 2b 3f
       0.6772274 0.58122224 0.88704747 0.6718297
000030 c7 49 49 3f 3a 8c 59 3f 6b 9c 1c 3f a0 57 fe 3d
       0.786282 0.84979594 0.61176175 0.12419057
000040 9f f2 4e 3f f5 a0 4f 3f 8d b7 28 3f 30 8e 92 3e
       0.8083896 0.81104976 0.65905076 0.28624105
000050 99 dd 58 3f 57 bd 15 3f 02 fd c2 3e 0c ec 0a 3e
       0.8471313 0.58492035 0.38083655 0.13566607
000060 42 58 3a 3f 86 88 20 3f 2d b5 b4 3e 6d 92 37 3f
       0.7279092 0.6270832 0.35294476 0.71707803
000070 c3 3f 23 3e 46 95 03 3f b3 94 91 3e e9 3c ad 3e
       0.15942292 0.5139965 0.2843376 0.33835533
000080 9e 6f 3f 3e f0 e5 b9 3c 47 71 b3 3e 94 fc 0d 3f
       0.18694922 0.02269265 0.3504736 0.5546353
000090 1c 97 6f 3f d4 1a 35 3f 34 56 05 3f 1b 9f cc 3e
       0.9358995 0.7074406 0.5208466 0.39965138
0000a0 36 60 4f 3f a2 10 cc 3d 6e 1f 13 3f ca ee 0e 3f
       0.8100618 0.0996411 0.5746983 0.55833113
0000b0 e9 42 2a 3e 01 ea c7 3e c2 4d c7 3d 9a 3b 46 3f
       0.16627087 0.39045718 0.09731628 0.77434695
0000c0 ba ee 10 3f b4 f0 7e 3f 54 f2 3f 3f 00 51 15 3f
       0.5661427 0.99586034 0.7497914 0.5832672
0000d0 b7 99 2e 3f 76 62 6d 3e be f1 ef 3d 72 c6 16 3f
       0.682033 0.23182091 0.117160305 0.58896554
0000e0 4e 32 5d 3f 30 51 22 3f 95 cd 42 3f 80 3a 34 3f
       0.86404884 0.6340513 0.76094943 0.70401764
0000f0 15 4c b5 3e af 4e 1f 3d 89 13 07 3f 61 07 03 3e
       0.35409608 0.038893398 0.52764183 0.12795784

encoder.0.1.bias f4 [64]
000000 96 74 a5 be 88 36 b1 be 36 66 22 3e d4 b8 d1 3e
       -0.3231551 -0.34611917 0.15859303 0.40961325
000010 f9 10 ce be 99 38 e4 3e 5b 49 5b be bb 28 3a be
       -0.40247324 0.4457443 -0.21414702 -0.181796
000020 80 4f 9d 3d 79 66 4f 3d 61 cf ce be 7d 1c 24 bd
       0.07681179 0.050634835 -0.40392593 -0.04006623
000030 6d e4 cc be 70 47 3b 3e 6f 4d 61 be 9e 7a ad 3e
       -0.40018025 0.1828897 -0.22002195 0.33882612
000040 4c 6d 79 be c3 da 82 3e 12 13 33 3d e6 c7 a0 3d
       -0.243581 0.25557527 0.04371936 0.078506276
000050 6b a2 df be f9 80 8e 3e 0a c7 65 bf e3 01 80 be
       -0.43678603 0.27832773 -0.89756835 -0.2500144
000060 22 22 8d bd 5e aa 43 3f 47 7c 82 3f 06 c1 16 be
       -0.06891276 0.76431835 1.0194176 -0.1472207
000070 d0 c8 2b bf 15 c1 58 be 66 dc 51 3f a3 5c 97 3e
       -0.6710329 -0.21167405 0.81976926 0.29562864
000080 37 7b 83 bf 44 bd 49 be 48 3c d7 bd 81 9c 48 3f
       -1.0271977 -0.19701105 -0.105095446 0.78363806
000090 17 36 6d 3e d1 39 51 be bc 06 68 bf 0c 06 29 3f
       0.23165165 -0.20432211 -0.90635276 0.6602485
0000a0 aa c2 71 3e 88 01 e9 be c5 85 49 bf f4 bd 28 bf
       0.23609415 -0.4550898 -0.7871974 -0.65914845
0000b0 ef 0d 4a bd 86 29 30 3e 9c 8b 00 3d 78 1e 3f 3f
       -0.049329694 0.1720334 0.031383142 0.74655867
0000c0 a3 4e de 3e 97 57 09 3e 79 65 78 3e 75 36 ba be
       0.4341937 0.13412319 0.24257459 -0.36369672
0000d0 08 60 33 3e 43 d8 3c bf 37 28 1f 3e f6 2c 08 3f
       0.17517102 -0.7376749 0.15542684 0.53193605
0000e0 58 f7 f8 bd 9e 7d 23 bf a9 5e 0f 3f 54 df 96 3e
       -0.12156552 -0.6386355 0.56003815 0.2946726
0000f0 07 c8 1d bc ff 57 ce bd 2d 60 df bd d1 79 a3 be
       -0.00963021 -0.10075378 -0.10907016 -0.31928876

encoder.0.1.running_mean f4 [64]
000000 95 6d cf be 28 7e 21 bf 89 8e dc bd 57 37 ee 3e
       -0.40513292 -0.63083124 -0.10769374 0.46526596
000010 eb 2f e4 be 57 b1 30 3f 64 d0 ce 3d 13 d0 10 3d
       -0.44567809 0.690206 0.10098341 0.035354685
000020 b8 aa e1 3e b0 7c 30 bd 24 e0 e6 be e6 d3 6b be
       0.4407556 -0.04308766 -0.4509288 -0.23030052
000030 25 ee aa be c7 51 2b 3e ad 46 42 be 8b 4f 90 3e
       -0.33384815 0.16730414 -0.18972273 0.28185686
000040 ae 4b 04 3e c2 7a 3c 3f c6 3e 59 3e ee ea 43 3d
       0.12919495 0.73624814 0.21215352 0.04783147
000050 61 d2 51 bf 57 b4 f9 3e 4d 04 f3 bf f2 94 fe 3d
       -0.8196164 0.487704 -1.8985687 0.12430753
000060 5e 1c 5d 3e 6f 40 8f 3f cd 27 a4 3f 16 13 0f 3e
       0.21592852 1.1191539 1.2824646 0.13972124
000070 90 31 04 bf 36 94 7b be 26 6b 85 3f 3b f4 e1 3e
       -0.51638126 -0.24568257 1.0423324 0.44131646
000080 cb 9e d9 bf ba 29 12 3e b6 6e 7a 3e 4c c0 a1 3f
       -1.7001585 0.1427373 0.24456295 1.2636809
000090 e0 82 ac 3e 94 ed e4 be cd 95 d1 bf c4 9c 83 3f
       0.336936 -0.44712508 -1.637384 1.0282216
0000a0 37 fc f9 3e 37 c3 31 be 4b 8d 87 bf 3c 5f 72 bf
       0.48825237 -0.17359625 -1.0589994 -0.94676566
0000b0 49 ec 94 3e 26 e1 4c 3e 70 d7 b6 3e 67 8e 47 3f
       0.2908652 0.20007762 0.3571124 0.77951664
0000c0 90 e6 43 3f 6d 8b de 3e 80 be 9a 3e 26 f4 24 be
       0.76523685 0.43465748 0.30223465 -0.1610876
0000d0 96 97 d6 3e 0c 7c 9b be 58 83 3b 3f 4d 5d 35 3f
       0.41912526 -0.30368078 0.7324729 0.7084549
0000e0 18 0e 9b be c3 90 ee be d5 95 11 3f e8 c8 b1 3d
       -0.3028419 -0.4659482 0.5686925 0.08680898
0000f0 fe df 0a be d9 28 68 3d 09 ec 91 3e 22 bd f6 bc
       -0.13562009 0.05667958 0.28500393 -0.030119482

encoder.0.1.running_var f4 [64]
000000 5a 37 22 40 0b 9a 5a 40 99 a7 c0 40 e2 a5 ca 3f
       2.5346284 3.415652 6.0204587 1.5831873
000010 ef 45 7b 40 09 84 87 40 62 d2 24 3f f5 ca 0a 40
       3.9261434 4.2348676 0.6438352 2.1686375
000020 ee e8 95 40 7f f5 6d 40 e2 85 8a 41 7b 1b 7f 40
       4.684684 3.718109 17.315372 3.9860523
000030 a4 c6 43 41 77 d1 c5 40 ff 63 75 40 2b a4 ab 3f
       12.235996 6.1818194 3.8342283 1.3409475
000040 e6 09 b5 40 ac 14 15 41 e6 9a 2a 40 f0 3d b1 3f
       5.6574583 9.317547 2.6657043 1.3847027
000050 f8 41 31 41 29 10 f6 3f cc 3e bb 3e a0 8b 97 3f
       11.078606 1.9223682 0.36571348 1.1839485
000060 2b aa 60 40 e6 cf af 40 6e 80 3c 3e b1 19 85 40
       3.5103862 5.494128 0.18408367 4.159386
000070 2a da c5 3f 50 eb 84 40 c6 7c ae 3e ed ce cb 3f
       1.5457203 4.1537247 0.3407957 1.5922524
000080 ef 72 d6 3e 26 e5 9a 3e 14 92 ae 3f 1f 65 0d 3c
       0.41884562 0.3025295 1.363833 0.008630066
000090 a1 44 cc 40 f2 bc 2e 40 7e 81 3e 40 98 6b 63 3f
       6.3833776 2.7302823 2.9766536 0.8883605
0000a0 c4 67 47 40 8d fb d5 3e 1f 45 ec 40 30 67 44 40
       3.1157084 0.4179348 7.3834376 3.068798
0000b0 68 e6 35 3f 8c e1 9b 40 56 66 2b 3f f2 9b 05 3e
       0.710547 4.8712826 0.6695303 0.1304777
0000c0 55 f7 85 40 1d 50 ba 41 f5 72 88 40 34 7d ad 40
       4.186442 23.289118 4.264033 5.4215336
0000d0 c5 a7 60 40 37 de 34 3f 26 2d d5 3f 0d 1e a5 40
       3.5102398 0.7065157 1.6654403 5.1599183
0000e0 39 87 84 41 8d 6f 82 40 b3 65 a4 40 62 e1 a9 3f
       16.566027 4.076117 5.1374145 1.3271906
0000f0 57 9b f4 3f b9 92 17 3e 83 68 82 3f ff 75 ee 3d
       1.9109906 0.14802064 1.0188144 0.116436

encoder.1.0.weight f4 [128, 64]
000000 b6 5d 51 bc ab df aa bc 54 78 b5 3d 16 8f ed 3d
       -0.01277869 -0.020858606 0.088608414 0.11599557
000010 cc 6f 03 3e 5e 3f f1 3d 2f 84 80 3e ff 45 59 bd
       0.12835616 0.117796645 0.25100848 -0.05304527
000020 0f 14 a4 bd 76 d3 50 3d 28 8c d7 3d db e8 3f 3e
       -0.080116384 0.050982915 0.105247796 0.18741171
000030 a6 41 70 3c 82 f8 4e 3c 19 70 06 3e b7 8a f7 3c
       0.014664089 0.012632491 0.131287 0.030217512
000040 1c f8 96 3d ca e1 3c 3e bf a2 5c 3e ff 5a 49 3b
       0.07371542 0.18445507 0.21546458 0.0030724404
000050 d5 8b e6 bc 28 bc 4f 3d c2 88 0c 3e 9b 0f d2 bd
       -0.028142849 0.05071655 0.13724044 -0.10256883
000060 13 b6 e5 bd e1 d9 ae bd ad 89 6b bd 41 86 c2 3d
       -0.112163685 -0.08537651 -0.057504345 0.09498263
000070 77 62 78 3e 49 2a 65 3e 34 c4 f8 3c 59 da b8 3d
       0.24256311 0.22379412 0.030366994 0.090260215
000080 1e 76 48 3e da fa fa 3d 31 07 40 3e 33 48 c5 3d
       0.19576308 0.122548774 0.18752743 0.096329115
000090 48 2a c1 bc 4a 48 1a 3e a4 f0 19 be 09 11 a4 bd
       -0.023579732 0.15066639 -0.15033203 -0.08011062
0000a0 9a bd bf 3c 62 98 52 3e 1e 05 36 3d 47 a6 7a 3e
       0.023405839 0.20565942 0.044438474 0.24477492
0000b0 58 43 8a bd 45 27 04 3d 69 a5 e9 3d ad 31 80 3d
       -0.06751126 0.032264013 0.114085026 0.06259475
0000c0 e8 f1 b5 bd 6a 54 c7 3d ba 5e 77 bc 0c 8e 9a bd
       -0.088840306 0.097328976 -0.015098268 -0.075466245
0000d0 45 d3 4c 3c 72 42 7a 3e 97 5a 89 3d 0c 26 ec 3b
       0.012501542 0.2443941 0.06706732 0.007206684
0000e0 3a cb bd 3d d2 1a 8e 3e e2 6a 07 bd 75 55 b1 3c
       0.09267278 0.27754837 -0.033060916 0.021647194
0000f0 95 a4 07 3e 7b 32 fb 3d 39 9f 4a 3e 75 64 ef 3d
       0.13246377 0.12265488 0.19787301 0.116890825
000100 db 95 85 bd 8a c2 fd 3d 3e 0c 11 3d 9f 7c 1a be
       -0.06522723 0.12390621 0.035412066 -0.15086602
000110 12 fd 25 3e 70 76 4d 3d 91 ac 2c 3e a2 0c 57 be
       0.1620982 0.05016178 0.16862704 -0.21000913
000120 af eb cf bd 55 00 b4 bd 64 34 5a 3d 85 a3 75 3d
       -0.10152375 -0.08789126 0.05327262 0.059970398
000130 0b 4f 4a 3e 42 72 c0 ba 6c 68 47 3e 33 c1 36 be
       0.19756715 -0.0014682489 0.19473428 -0.17847137
000140 2b 71 35 bd 82 7f 1e bd e8 27 70 bd 48 f8 d6 3d
       -0.04429738 -0.03869582 -0.058631808 0.10496575
000150 41 8c 81 3e 9e 40 11 be d1 89 53 3e c9 fc b0 3d
       0.25302318 -0.14184806 0.20658042 0.08641965
000160 6b 58 87 bd f0 55 f7 bd e2 01 41 be d0 84 ff bd
       -0.06608661 -0.12076938 -0.18848374 -0.12476504
000170 55 8e 80 3e 7f 7b 0f bd 8a 26 84 bd bb 9d 8b be
       0.2510859 -0.035029884 -0.06452663 -0.27268776
000180 75 3d 74 3e 8c cb 14 3e 5f 6c 6b 3e f2 e9 73 3d
       0.23851569 0.14530772 0.22990559 0.05954928
000190 df d5 14 3d 3b 9c 49 be 5f c2 b0 3e 66 e0 e0 3d
       0.036336776 -0.19688503 0.34523293 0.109803006
0001a0 57 21 d1 bd 16 93 67 bc b5 60 bc bd ab 73 85 3e
       -0.10211437 -0.014134189 -0.09198133 0.2606481
0001b0 bf be 7b bd df 16 de bd 75 81 06 be 07 a1 82 3d
       -0.061461207 -0.10844206 -0.13135321 0.0637837
0001c0 55 7e 3c be 2c 47 45 be b4 f6 c1 3d 18 17 08 be
       -0.18407567 -0.19265431 0.09470883 -0.1329006
0001d0 25 fd da bd 77 48 89 3e d0 9b c2 bd 38 ea 1c 3d
       -0.10692815 0.268131 -0.09502375 0.038309306
0001e0 cb 21 6c be a7 1e 4a 3d 37 3b 24 be 25 3d 43 3e
       -0.23059766 0.04934564 -0.16038214 0.19066294
0001f0 a3 73 70 be b0 69 e9 3d dd 2f ad bd 8b 12 a3 3c
       -0.23481612 0.113971114 -0.08456395 0.019906303
000200 15 b6 9a 3d 49 f4 85 bd 90 0b 01 bd 1f 15 a0 be
       0.07554261 -0.06540734 -0.031505167 -0.31266114
000210 c2 ef 8c b9 b8 6a a5 be 44 c0 0c bc ba d2 b2 bc
       -0.00026881514 -0.32307982 -0.008590762 -0.021828998
000220 ca 49 ad 3c a8 e2 94 be 2b 62 b9 bd d8 54 74 be
       0.02115335 -0.29079175 -0.09051927 -0.2386049
000230 e0 55 aa bd e5 99 0b bf bb 8b 21 3d 7c 5e 27 bf
       -0.083171606 -0.545317 0.039439898 -0.65378547
000240 13 c8 1d bd 96 60 13 be 09 20 4e be 7f 20 9b 3d
       -0.038520884 -0.14392313 -0.20129408 0.075745575
000250 54 c3 e8 bc 29 5f a9 be da fd 78 3e f1 d5 81 3e
       -0.028413452 -0.33080414 0.24315587 0.25358537
000260 ec 9f 31 bc ab ef 22 bf fa d7 86 3d 54 f3 96 be
       -0.010841351 -0.63646954 0.06584163 -0.2948252
000270 30 d0 ab 3e 5e 43 b1 be f5 c5 1f be ae 37 b0 3c
       0.33557272 -0.3462171 -0.15602858 0.021510925
000280 c2 64 a2 3e ae c1 b3 3d 0e 28 ab bd b5 50 18 be
       0.31717497 0.08777176 -0.08357249 -0.14874537
000290 b0 be 4b be 1b 2e ba 3d 58 68 24 3e cb 77 12 bf
       -0.1989696 0.09090825 0.16055429 -0.5721404
0002a0 a2 2c b7 be 0b 65 77 3e 56 b6 13 3e ae c0 fd 3d
       -0.3577624 0.24159639 0.14425024 0.12390266
0002b0 0b 8d 31 3d 9c d7 38 3d 5d 48 9e 3d 4e 69 3a bd
       0.0433474 0.045127496 0.07728646 -0.045510583
0002c0 3b d7 92 be 9f 45 1d be c9 9f c0 bd 3b e7 ac bd
       -0.28679833 -0.1535859 -0.094054766 -0.08442541
0002d0 3b 19 0f be 5e 07 ab 3d 31 0f 9e be f0 81 86 be
       -0.13974468 0.083510146 -0.30870965 -0.2627101
0002e0 b2 32 5d be 1c a8 5c be 3c c2 82 be d0 07 a4 bd
       -0.2160137 -0.21548504 -0.25538814 -0.080093026
0002f0 2a da 95 be 0f a9 ac 3d a3 06 01 3e af 26 3d 3b
       -0.29268008 0.08430683 0.12600188 0.0028862169
000300 89 5f 0c be 45 ec df 3d 76 58 9f 3d 78 d9 29 3e
       -0.13708319 0.10933737 0.077805445 0.16586864
000310 6a 64 9d bd 8d 43 4d 3e 53 18 a2 3c fb 76 c5 bb
       -0.07685168 0.200453 0.01978699 -0.0060261465
000320 d4 4f 58 3d 48 31 aa 3d 56 eb 11 3e 96 9e 1d 3e
       0.052810505 0.08310181 0.1424993 0.15392527
000330 10 17 0d bc 18 93 73 3e e0 83 b0 b9 c6 c1 96 3e
       -0.008611456 0.2378658 -0.0003366759 0.29444712
000340 69 6d df bd 50 d2 2e 3e e9 8c 65 bd 28 37 51 3e
       -0.1090954 0.17072415 -0.056042586 0.20431197
000350 4c 3f f2 3d ee aa 19 3d 10 4e 1f be bb bf 64 be
       0.11828479 0.037516527 -0.15557122 -0.22338764
000360 dc 5c 98 bd e0 93 b5 3e f3 8e 82 3d db 62 49 3c
       -0.074395865 0.35464382 0.06374922 0.012291635
000370 21 4e bb bd 68 96 e7 3d 30 9d 42 3e a3 e5 cc 3d
       -0.09145761 0.113079846 0.19005275 0.10004737
000380 00 00 80 be b7 ee 08 be 11 19 bb bc ea ab 2b 3e
       -0.25 -0.13372312 -0.022839101 0.16764799
000390 53 63 8a 3d 29 02 f6 bd df 57 27 38 b2 39 53 3e
       0.06757226 -0.12012131 3.989774e-05 0.20627478
0003a0 5c 4f 0d 3e e9 d8 12 be d4 3a 65 bd 64 ef ae bd
       0.13799804 -0.14340557 -0.055964306 -0.08541754
0003b0 76 04 9c bd 76 b3 e7 bc 3e 00 24 3d db 2d b2 3d
       -0.07618038 -0.028283816 0.040039293 0.087001525
0003c0 8f 87 b1 3d 26 7f 18 3e aa ef 9d bd a9 f5 f2 bc
       0.08668434 0.14892253 -0.07711728 -0.029658156
0003d0 24 0a 9c 3e 1c a3 3e be fc 39 17 3d cb b0 ce 3d
       0.30476487 -0.18616909 0.036920533 0.10092314
0003e0 d8 a7 f7 3c 79 3f 09 3e a5 50 33 3c c2 3e 8b bd
       0.030231401 0.13403119 0.01094452 -0.067990795
0003f0 fb 9d c4 3d 13 bb b6 bd f8 1e 47 bd 89 ff 8c 3e
       0.09600445 -0.089224 -0.04861352 0.27538708

encoder.1.0.bias f4 [128]
000000 34 3e 34 bf 1d de 27 bf 4b 1c b1 be 68 dd f2 3e
       -0.70407414 -0.6557329 -0.34591898 0.47434545
000010 d4 9b 71 3e c7 7a ed 3d f3 31 2f bf 53 71 ac bd
       0.235946 0.115956835 -0.6843559 -0.084200524
000020 fb a4 06 3d 39 52 ac be 3e 9e b6 3e 0e b5 33 bf
       0.03287218 -0.3365648 0.35667604 -0.7019814
000030 a8 c3 ca be 37 37 12 bf 29 c8 c8 bf 6e 74 5a 3e
       -0.396024 -0.571155 -1.5686084 0.21333477
000040 6a 0f 65 be 45 e9 1e 3f 04 6f 37 3e e2 72 74 bf
       -0.22369161 0.6207469 0.17913443 -0.954878
000050 eb aa d0 3e 22 cb 33 bf 1d 47 f6 3e 26 1c 11 3f
       0.407554 -0.7023183 0.4810113 0.56683576
000060 b7 12 6a 3f 01 b5 4f 3d ab be e1 3d 85 ae 3c be
       0.91434807 0.05070973 0.11022695 -0.18425949
000070 6a 99 b2 bd 7c 25 06 3f b2 2d 87 be 81 56 9b bf
       -0.08720668 0.52400947 -0.2640205 -1.2135774
000080 5e 86 51 bf 57 7b 8d bf 9b 9f c6 be 7e 03 c6 be
       -0.81845653 -1.1053265 -0.38793644 -0.3867454
000090 e0 47 3a bf 5a c6 03 be 17 d9 a6 3e 1a 45 0a be
       -0.7276592 -0.12868634 0.325875 -0.13502923
0000a0 61 9e a6 be 38 53 cd 3e eb 3f 01 3f 86 63 d6 be
       -0.3254271 0.40102553 0.50488156 -0.41872805
0000b0 b4 43 fb 3b 72 cb 5b be 28 41 9c 3e 6b 63 9a bf
       0.007667983 -0.21464327 0.3051846 -1.206159
0000c0 ce 9a 3f bf b8 f7 d9 be 72 e7 1d 3f f0 10 64 be
       -0.7484559 -0.42571807 0.6168128 -0.22272086
0000d0 e1 99 13 bf ea 5a 81 be f7 5e ce 3e 46 1c bb bf
       -0.57656676 -0.25264674 0.40306827 -1.4618003
0000e0 b6 0b 12 bf 69 be 7c bf 8a f4 89 bf e8 69 c9 be
       -0.5704912 -0.9872804 -1.0777752 -0.39338613
0000f0 70 46 74 bf e3 55 a5 3d 47 75 7c be 03 ef 50 bf
       -0.9541998 0.08073022 -0.24654113 -0.816147
000100 8d 8a 2b bf ad 95 a5 bf 22 3e 06 bf d4 48 61 bf
       -0.67008287 -1.2936302 -0.5243856 -0.8800175
000110 b5 12 fd 3e 06 7b 09 be 92 fd 38 bf 96 e0 69 3c
       0.49428335 -0.13425836 -0.7226192 0.014274737
000120 64 e8 6a bf 66 a3 12 bf 62 f6 b5 3e ae 43 b4 3e
       -0.9176085 -0.57280576 0.35539538 0.35207886
000130 39 60 2e bd 7f c0 f0 3e 7f ee a3 be 87 9f bd bf
       -0.042572234 0.47021863 -0.32017896 -1.4814309
000140 42 90 5e be c2 86 70 bf 6a e0 49 be 52 9d 93 bf
       -0.21734717 -0.93955624 -0.19714513 -1.1532385
000150 a8 1a a5 bd 98 6a 2a 3e 45 57 86 bf 7b f0 3c bf
       -0.08061725 0.16642225 -1.0495383 -0.73804444
000160 24 1b 24 be 73 2e f5 bc 3a 4b 85 bf 1a 39 9b bf
       -0.16025978 -0.029929375 -1.0413582 -1.2126801
000170 e5 db dc be 9a d4 52 3f 75 6a 1f bf b4 e5 d5 3e
       -0.43136516 0.82355654 -0.62271816 0.41776812
000180 89 b1 35 3f 6b ba cb be b1 9e 4e 3d fd 50 1c bf
       0.7097402 -0.39790663 0.05044431 -0.6106108
000190 59 d7 6e 3c ef 29 f4 bd fd dd 79 bf 56 f6 c0 bd
       0.01457771 -0.11922061 -0.9760435 -0.09421985
0001a0 d6 d4 82 bd 7d aa 0d bf 6b 83 ae bd 39 3c b8 3e
       -0.063882515 -0.5533827 -0.0852116 0.35983446
0001b0 40 ac db 3e f5 72 9b bf 30 2e 34 3f a9 c0 c4 be
       0.42904854 -1.2144457 0.70382977 -0.38428238
0001c0 eb b1 20 3e 6f 82 d5 3e 71 f0 ec 3e f8 db a1 bf
       0.1569287 0.41701075 0.46277192 -1.2645254
0001d0 2b a3 e6 3d f2 98 3d bf 6c 18 ca bd 40 b4 54 3e
       0.112615906 -0.740615 -0.09867939 0.20771885
0001e0 50 be 9a bf 49 32 90 3e ef ce 5b bf 19 fe cf 3d
       -1.2089329 0.28163365 -0.8586263 0.10155887
0001f0 f2 22 86 bf 26 1b 93 be ed 22 37 be 54 ad 76 be
       -1.0479414 -0.2873165 -0.17884417 -0.24089557

encoder.1.1.weight f4 [128]
000000 9f d9 dd 3e f7 6e 00 3f 41 f9 cd 3e c2 9b bf 3e
       0.43330094 0.5016932 0.40229228 0.3742352
000010 67 22 51 3f 73 14 a4 3e 73 f0 04 3f 36 12 8c 3e
       0.8169312 0.32046852 0.51929396 0.27357644
000020 e1 17 2a 3f 83 17 a0 3e f6 f6 0d 3f b9 0b dd 3e
       0.66442686 0.31267938 0.5545496 0.43173006
000030 5c 90 4a 3e 52 39 05 3f 8a f7 0f 3f d2 90 b6 3e
       0.19781631 0.5204059 0.5623709 0.35657364
000040 1b c8 a8 3e 39 f6 66 3f 81 1e 82 3f 9a 47 00 3f
       0.32965168 0.90219456 1.0165559 0.50109255
000050 10 59 14 3f 4d 13 d7 3e 96 28 30 3f 94 c3 13 3f
       0.579484 0.42006913 0.6881193 0.57720304
000060 ef d9 48 3e c4 18 4b 3f fa 4a b5 3e 06 aa 0c 3f
       0.19614385 0.79334664 0.35408765 0.54946935
000070 0e 1f 05 3f 70 d2 42 3f 59 e7 30 3f 6a 35 22 3f
       0.5200051 0.7610235 0.6910301 0.63362753
000080 d5 7e c2 3e be e5 e1 3e 55 70 c3 3e c0 ad ea 3e
       0.3798739 0.44120592 0.3817164 0.45835686
000090 a9 13 c3 3e 14 70 92 3e da 93 5e 3e 58 c4 1c 3f
       0.38100937 0.28601134 0.21736088 0.61237097
0000a0 e5 96 c8 3e cf 1c 1f 3f 3a 77 30 3f 10 98 c3 3e
       0.39177623 0.62153333 0.68931925 0.38201952
0000b0 f0 0f ba 3e 26 23 2c 3f f7 09 d6 3e 63 5a 0d 3f
       0.36340284 0.6724113 0.41804478 0.55216044
0000c0 ab e6 3d 3f b3 c2 b6 3e 46 eb 27 3f 6e a9 29 3f
       0.74180096 0.3569542 0.65593374 0.66274154
0000d0 4e 0b 8f 3e e5 b2 d5 3e 0b 3d 32 3f f4 6a 0f 3f
       0.27938312 0.41738048 0.69624394 0.5602257
0000e0 71 da 18 3f 0c d6 3f 3f cc eb d9 3e af 4a e8 3e
       0.59708315 0.74935985 0.4256271 0.4536948
0000f0 79 94 ce 3e 89 f6 53 3f 4c b2 3d 3e 3a 07 2f 3f
       0.4034765 0.8279806 0.18525046 0.683704
000100 ad 45 19 3f 5b 87 60 3f 2f 05 06 3f 13 0f b8 3e
       0.5987194 0.87706536 0.5235166 0.35949
000110 cc 5b 73 3f 81 54 ce 3e f0 51 16 3f 08 37 12 3f
       0.95061946 0.40298846 0.58718777 0.5711522
000120 9e 78 fd 3e a3 75 15 3f 27 73 b5 3e 0b 9f 68 3f
       0.49506086 0.58382624 0.35439417 0.9086768
000130 de 88 3f 3f e0 a6 00 3f c7 b0 35 3f e1 dc 22 3f
       0.7481822 0.5025463 0.70972866 0.63618284
000140 2b ea e2 3e 50 b5 0d 3f f7 2c 45 3e f1 44 06 3f
       0.4431928 0.55354786 0.19255434 0.52448946
000150 b5 f8 dc 3e 8f 0d 22 3f 82 eb 10 3f 0e 7c a9 3e
       0.43158498 0.6330194 0.56609356 0.3310246
000160 ff db 9a 3e 4a fa 21 3f cd 87 db 3e a2 e0 23 3f
       0.3024597 0.63272536 0.42877045 0.6401464
000170 25 6d 88 3e 7f fd 0c 3f f0 07 f1 3e 81 43 7a 3f
       0.2664577 0.55074304 0.47076368 0.9775925
000180 d0 6d 49 3f af 29 f0 3e 50 0a 4f 3f 9a 12 de 3e
       0.78683186 0.46906802 0.8087511 0.43373567
000190 92 04 0e 3f be a1 02 3f f5 2d 8b 3e 5f 78 58 3e
       0.55475724 0.5102805 0.271835 0.21139668
0001a0 f1 b7 0e 3f 2e ef ed 3e 67 f0 3e 3f 37 c7 de 3e
       0.5574942 0.46471542 0.74585575 0.43511364
0001b0 41 95 39 3f 15 45 1c 3f ab 37 1d 3f fe 1c ca 3e
       0.7249337 0.6104291 0.6141307 0.39475244
0001c0 32 de 41 3f 3c 04 e7 3e 88 f0 2c 3f e2 f7 c8 3e
       0.7572967 0.45120418 0.6755452 0.3925162
0001d0 70 00 a9 3e ef e6 67 3f 9c 7a 5a 3f 9e 29 ff 3e
       0.33008146 0.9058675 0.8534334 0.4983644
0001e0 08 77 27 3f b3 da eb 3e f4 f1 0f 3f d2 cb 6f 3f
       0.65416 0.46065292 0.56228566 0.9367038
0001f0 83 1b 2f 3f 44 fc d3 3e 41 ef cf 3e 54 23 b3 3e
       0.68401355 0.414034 0.40612224 0.3498789

encoder.1.1.bias f4 [128]
000000 ec fc 51 bf 43 3d 29 bf 05 4f ce be b2 da c8 3e
       -0.82026553 -0.661091 -0.40294662 0.3922935
000010 f7 eb 58 3e 23 1a 1f 3e a0 48 37 bf 64 6d 31 3d
       0.21183763 0.15537314 -0.7159519 0.043317214
000020 22 2c 0d 3e 26 e4 1c be b3 62 df 3e 70 6d cb be
       0.13786367 -0.15321407 0.4362999 -0.39731932
000030 86 b9 12 bf 7a dc f4 be b5 47 36 bf 2d ec b5 3e
       -0.57314336 -0.4782446 -0.71203166 0.3553175
000040 f4 eb 8b be 0f b6 01 3f ee e9 2a 3e 04 88 23 bf
       -0.27328455 0.50668424 0.166908 -0.6387942
000050 b0 d1 c6 3e 0e 0f 08 bf 89 ac f9 3e 30 ca ee 3e
       0.38831854 -0.5314797 0.48764446 0.46638632
000060 93 65 20 3f dd 71 c4 bd 7a 24 99 be d3 d8 47 be
       0.6265499 -0.0959203 -0.29910642 -0.19516306
000070 f9 56 65 be 8c f5 df 3e 3f 58 5f be 07 47 05 bf
       -0.22396459 0.43742025 -0.21811007 -0.52061504
000080 46 a0 1e bf 3d 26 17 bf ea 9d 15 bf 27 ff ad be
       -0.6196331 -0.5904272 -0.5844408 -0.33983728
000090 47 f5 4e bf ca 24 ba be 46 bf 50 3e 61 0c 9b be
       -0.80843014 -0.36356193 0.20385465 -0.30282882
0000a0 83 01 ec be ae 01 de 3e b8 94 c6 3e d3 5d a4 be
       -0.46094903 0.43360656 0.38785338 -0.32102832
0000b0 1c f4 0f be 8c 9b 50 be 08 44 42 3e d2 29 34 bf
       -0.14057964 -0.20371836 0.18971264 -0.7037631
0000c0 07 28 82 bf 04 97 b6 be f4 90 ef 3e 5c 44 9f be
       -1.0168465 -0.3566209 0.46790278 -0.31106842
0000d0 17 b2 0e bf 3f 80 f9 be aa 49 a0 3e 4a d8 ef be
       -0.55740494 -0.48730657 0.313062 -0.46844703
0000e0 ad 8a e0 be 4b 63 86 bf 08 02 13 bf a2 64 14 bf
       -0.438558 -1.0499052 -0.57424974 -0.57966053
0000f0 aa e6 4f bf 55 58 fb 3d 7d 2c a8 be 92 0d e7 be
       -0.8121134 0.122727074 -0.32846442 -0.4512754
000100 c1 1b be be 59 20 2f bf 89 3a 50 bf 70 e3 23 bf
       -0.3713055 -0.68408734 -0.8133932 -0.6401892
000110 4d 1d b4 3e db 50 c9 be 07 c8 f5 be 77 dc 56 ba
       0.35178605 -0.393195 -0.4800417 -0.0008196304
000120 a6 69 12 bf 56 c0 10 bf 22 49 17 3e 6e 3e 94 3e
       -0.57192457 -0.5654348 0.14773992 0.2895388
000130 7a 11 06 3d 97 8f 84 3e 53 2d 08 bf d8 75 3a bf
       0.03273151 0.258908 -0.5319416 -0.72836065
000140 2b 4e cb be 5e d2 46 bf b2 3b b7 be 5e 9c 1b bf
       -0.39708075 -0.77664745 -0.3578773 -0.6078547
000150 d6 b8 61 be bb ff 00 3d 97 6b f3 be e1 67 2f bf
       -0.22043166 0.031493884 -0.47543022 -0.6851788
000160 14 d1 b3 be 5a 8b cf 3d 3d 7a 14 bf af d4 65 bf
       -0.3512045 0.10134001 -0.5799902 -0.89777654
000170 17 84 28 bf a6 b2 3a 3f 54 87 e4 be 48 1a 94 3e
       -0.65826553 0.72928846 -0.44634497 0.289263
000180 57 6d 47 3f e2 19 fc be 11 40 31 3d c4 89 0d bf
       0.77901214 -0.49238497 0.04327399 -0.5528834
000190 f9 6f d6 bd 9a b8 bf be d9 85 04 bf f7 a3 b0 be
       -0.10470576 -0.37445527 -0.51766735 -0.34500095
0001a0 57 42 9d be 0b 46 05 bf c5 23 4a be fc 72 8d 3e
       -0.30714676 -0.5206 -0.19740207 0.2762679
0001b0 f1 4f 92 3e bf de 11 bf 2a 81 11 3f ba 61 8e be
       0.28576615 -0.5698051 0.56837714 -0.27808934
0001c0 45 b0 b8 3d f0 3c b2 3e 36 51 b7 3e 24 e0 66 bf
       0.09017996 0.34812117 0.35804147 -0.9018576
0001d0 d6 d8 c3 3d 38 cf 1f bf 53 c0 0d be ae 81 95 3e
       0.095628425 -0.62425566 -0.13842897 0.292005
0001e0 21 6a 70 bf cb e3 37 3e 38 2a 1d bf a2 24 65 3d
       -0.9391194 0.1795799 -0.61392546 0.05594314
0001f0 28 bc 20 bf 21 f6 82 be 08 fb ce be 3c be 85 be
       -0.62787104 -0.25578406 -0.40425897 -0.261217

encoder.1.1.running_mean f4 [128]
000000 01 f8 00 be fe d4 bd bf 56 0c 75 c0 c8 a9 10 40
       -0.12594606 -1.4830625 -3.828878 2.2603626
000010 eb 9c be 3f 27 a4 51 3f 94 73 04 c0 37 bd 24 bf
       1.4891638 0.818911 -2.0695543 -0.6435122
000020 74 e6 39 3f 39 3f b3 bf f2 6d bd 3f bc 59 3b c0
       0.7261727 -1.4003669 1.4799178 -2.927352
000030 c7 7a e9 bf 26 28 84 bf b3 bc aa c0 bd c2 b4 3f
       -1.8240594 -1.0324752 -5.3355346 1.412193
000040 d8 5b f6 bf f2 67 3c 40 8f ae c3 3f ff 01 72 c0
       -1.9246778 2.9438443 1.5287646 -3.7813718
000050 e2 fb 40 40 23 18 85 c0 9a 9d 38 40 9a 99 a7 3f
       3.0153737 -4.1591964 2.8846192 1.309375
000060 07 ac f0 3f 3b 24 a8 3e 3c 8f fc bf b5 2f f0 3e
       1.8802499 0.32840142 -1.9731212 0.46911398
000070 45 33 17 c0 1e 6f 41 40 28 d2 3c c0 73 0a 92 c0
       -2.3625042 3.022407 -2.950327 -4.5637755
000080 75 c6 70 c0 2a d8 35 c0 a0 4b 44 c0 50 3b a2 bf
       -3.7621129 -2.8413186 -3.0671158 -1.2674351
000090 85 4e db bf 8a 2e ba bf b6 18 66 be ef d3 4c c0
       -1.7133337 -1.4545453 -0.22470364 -3.2004354
0000a0 d3 6f 0a c0 cf 41 17 40 cc 0a 24 40 93 23 27 c0
       -2.1630752 2.3633916 2.563159 -2.6115463
0000b0 9e 63 32 bf 8d 30 f5 3e b5 c2 98 3f 65 56 ae c0
       -0.69683254 0.47888604 1.193442 -5.448046
0000c0 ba 6d 65 c0 ac fc b9 bf b1 6e 0e 40 c7 48 e6 bf
       -3.5848222 -1.4530234 2.225506 -1.799096
0000d0 51 d1 25 c0 7e 94 b2 bf 04 79 1d 40 18 cd a0 c0
       -2.5909007 -1.3951566 2.4605112 -5.025036
0000e0 f1 d8 71 c0 02 01 97 bf 2d 5a 7f c0 d7 91 eb bf
       -3.778866 -1.1797183 -3.989879 -1.8403882
0000f0 2d 18 1f c0 66 6b 16 40 91 b3 80 bf 6d 3e 9a c0
       -2.4858506 2.350305 -1.0054799 -4.8201203
000100 3c b1 76 c0 ee 9a 94 c0 4c 9e 18 bf 27 10 92 c0
       -3.8545675 -4.6439123 -0.5961654 -4.5644717
000110 7a 09 31 40 4f 1b 3c bf de ef 67 c0 80 bf b8 be
       2.7662034 -0.7347917 -3.6240153 -0.36083603
000120 ef a0 83 c0 db cb 65 c0 b4 c6 16 40 66 5c 11 40
       -4.113395 -3.5905674 2.3558779 2.2712646
000130 b0 72 23 40 9f 75 6c 3f 0f e8 44 bd ca 6a b0 c0
       2.553875 0.92366976 -0.04807287 -5.513036
000140 8c d3 30 c0 1f 10 4f c0 f0 00 58 bf 6a 5e 90 c0
       -2.7629118 -3.235359 -0.8437643 -4.511525
000150 e0 e6 13 c0 f5 13 09 3f 44 a3 ab c0 ee 8b ec bf
       -2.3109665 0.53546077 -5.36368 -1.8480203
000160 fb 8f 31 c0 f3 29 63 be 79 4b 75 c0 99 a8 b6 c0
       -2.7744129 -0.22183971 -3.8327315 -5.708081
000170 de 8f 89 bf 25 10 5d 40 3b e5 7b c0 27 55 51 40
       -1.074703 3.4541104 -3.935866 3.2708223
000180 9a 87 6d 40 92 c0 89 c0 cc 03 b0 bc 2e 79 15 c0
       3.7114015 -4.304757 -0.021486185 -2.3355212
000190 80 20 b9 3e ab 1d dc bf 02 48 37 c0 46 e5 f5 bf
       0.36157608 -1.7196554 -2.86377 -1.9210594
0001a0 ea 63 61 c0 b4 83 4f c0 97 6a 21 c0 92 f4 8b 3e
       -3.5217233 -3.2424135 -2.5221307 0.2733503
0001b0 ad 33 d2 3f 60 5a cc c0 07 46 05 40 e3 3c 3a c0
       1.642202 -6.386032 2.0823991 -2.9099662
0001c0 f5 ab 66 3e dc b5 d6 3f 23 85 ad 3f 4d 97 84 c0
       0.22526534 1.6774249 1.3556255 -4.1434693
0001d0 c3 74 c4 be fa 0c 3f be be 65 44 c0 17 71 1e 3f
       -0.38370332 -0.18657294 -3.0687099 0.6189131
0001e0 e7 c8 27 c0 29 79 60 3f 7e ac 98 c0 4b fa 79 bf
       -2.621637 0.87684876 -4.771056 -0.9764754
0001f0 90 b4 9e c0 bc e9 03 c0 6c 5d 01 c0 dc 1e c7 3c
       -4.9595413 -2.061141 -2.021327 0.024306707

encoder.1.1.running_var f4 [128]
000000 7d 25 8b 3d 69 91 70 3d f6 39 b9 3e 9c 4a df 3d
       0.0679426 0.058732424 0.36177033 0.109029025
000010 e8 57 ef 3e bb 42 02 3e ca 73 08 3f 5d ec 06 3e
       0.46746755 0.12720768 0.5330168 0.13176103
000020 97 96 37 3e 8d d5 07 3e 59 61 8e 3e 0f ee 7e 3e
       0.17928539 0.13265057 0.27808645 0.248955
000030 bd 6d 11 3f aa 53 2a 3f f5 ce 96 3e 31 dd bc 3d
       0.5680807 0.6653391 0.2945477 0.092218764
000040 a1 09 bf 3e 8f fe 03 3f e4 56 a3 3f a0 7e c7 3e
       0.37312034 0.515603 1.2760892 0.38963795
000050 ce e1 9e 3e 34 45 31 3f 28 bc ae 3e a3 87 2d 3e
       0.3103165 0.6924622 0.34127927 0.16946273
000060 aa 0f f2 3c 79 cb 0e 3f d7 fa 8c 3e 5b 1f e1 3e
       0.029548485 0.55779225 0.27535126 0.43969235
000070 e6 c4 e1 3e 55 6f b0 3e d1 c1 f4 3e 20 a6 f9 3e
       0.44095534 0.3445994 0.4780412 0.48759556
000080 6d 0a fd 3d da 33 22 3e 8b 99 9e 3e 77 59 02 3e
       0.12355504 0.15840092 0.3097652 0.1272944
000090 32 ba ee 3d e1 29 25 3f e7 cd ed 3d 3d b2 67 3f
       0.11656608 0.6451703 0.116115384 0.90506345
0000a0 a5 6e 89 3e 0a 39 96 3e d9 b8 c4 3d ab 7b 02 3e
       0.26842228 0.29340392 0.096055694 0.12742488
0000b0 dc 5f 7f 3e e1 4e 22 3f cb ac 97 3d 9c 1c bc 3e
       0.24938911 0.6340161 0.074060045 0.36740577
0000c0 73 1f 5a 40 7e 95 c1 3e ab 38 75 3e 13 de 8b 3e
       3.4081695 0.37809366 0.23947398 0.27317867
0000d0 1c a8 1d 3e 1e 23 1e 3f d7 44 a8 3e 32 5a 42 3f
       0.1539616 0.61772335 0.3286502 0.7591888
0000e0 b3 58 32 3f cf 13 89 3f f3 b9 90 3e 55 20 3c 3e
       0.69666594 1.070917 0.28266868 0.18371709
0000f0 58 31 88 3e 19 9a cc 3e 5c 3c 70 3d 3d 0e f4 3e
       0.26600146 0.39961317 0.058651313 0.47667113
000100 17 fa 83 3f 35 3a 17 3f 0a d8 87 3d be 33 ea 3e
       1.0310696 0.5907319 0.06633003 0.457426
000110 8f b2 de 3e 77 3b 5e 3f 92 ec 1a 3f 14 f3 41 3d
       0.43495604 0.86809486 0.6051723 0.047350958
000120 3c 32 f9 3e 43 1e 91 3f 36 b4 87 3d 65 f6 d1 3e
       0.48671138 1.133736 0.066261694 0.41008297
000130 db 1a ca 3e 54 11 63 3d f7 26 09 40 3c 09 bd 3e
       0.39473614 0.055436447 2.1430032 0.36921108
000140 b6 6d 17 3f 05 de 8c 3f 60 1e 43 3e ba 8e ff 3e
       0.5915178 1.1005255 0.19054556 0.4991358
000150 52 a7 94 3e 13 7a 7d 3f 7f cd 05 3f 9d 40 3d 3f
       0.29033905 0.99014395 0.5226669 0.7392672
000160 85 dc 45 3e 93 16 f7 3d 35 44 4d 3e ad 23 84 3e
       0.19322403 0.120648526 0.2004555 0.25808468
000170 17 f6 11 3e f2 b7 26 3e a6 01 ac 3e d2 98 02 3f
       0.14254032 0.16281107 0.33595008 0.51014435
000180 cd 48 d3 3e 32 5d bb 3e f5 9a dd 3e c0 cd 92 3e
       0.4126648 0.3659454 0.43282285 0.286726
000190 5b be 71 3e c6 11 0e 3e 52 c5 ba 3d d7 a4 1e 3e
       0.23607771 0.13873968 0.09119667 0.15492569
0001a0 cc ca b2 3e e9 7a 4f 3f d4 a9 23 3f af 3f 64 3d
       0.34920347 0.8104692 0.6393101 0.055724796
0001b0 30 a2 7a 3e 5a 25 4a 3f 5c 5d 0e 3e 1b 56 42 3f
       0.24475932 0.78963244 0.13902801 0.75912637
0001c0 66 f2 1f 3f 0f 53 d7 3e 8f 14 35 3e 46 87 43 3e
       0.62479246 0.42055556 0.17683624 0.19094571
0001d0 84 00 f8 3d 23 5d 98 3f 70 d4 3e 3f a7 31 6b 3e
       0.12109473 1.1903423 0.74542904 0.2296816
0001e0 7b c4 80 3d 02 06 12 3e 41 75 0f 3f 9f 3d 30 3f
       0.06287476 0.14260104 0.5603829 0.68844026
0001f0 af fe ef 3e aa 41 56 3e ec b4 44 3e f8 07 19 3d
       0.46873996 0.20923486 0.19209641 0.037361115

encoder.2.0.weight f4 [256, 128]
000000 ba aa a0 3e 02 9b 77 be 6a 2e 17 be 2c 89 7c 3e
       0.31380254 -0.24180225 -0.147638 0.24661702
000010 87 a6 a8 bc 1a 01 83 3d 20 ce cf 3c ea e2 41 be
       -0.020587219 0.063966945 0.025366843 -0.18934217
000020 9e d2 49 3d ab 53 72 bd b7 08 08 3d 76 8c 80 3b
       0.049273126 -0.059161823 0.033211436 0.0039229942
000030 c9 68 9e 3d 01 62 b3 3d 71 3e e4 3d 1a 5a 05 be
       0.0773483 0.08758927 0.11144722 -0.13022652
000040 d8 8a 43 be 69 1d 60 be c5 64 2e 3d 5b fa 9c 3d
       -0.19095933 -0.21886219 0.04257657 0.07664939
000050 75 7c 47 3d 7c 40 47 be 49 47 2b 3e 7f f2 1c be
       0.048702676 -0.19458193 0.16726412 -0.1532688
000060 38 ec d4 be bf 20 47 bd 97 54 45 be c9 f2 02 be
       -0.4158647 -0.048615213 -0.1927055 -0.12787928
000070 86 47 36 3e 15 86 41 be c6 0c 96 be 7a e3 a4 bc
       0.17800722 -0.18898804 -0.2930662 -0.020128
000080 86 6a fd 3b de 9a b8 bd b3 5b 6f 3d 87 50 2c 3d
       0.007733646 -0.090139136 0.05843706 0.042068984
000090 96 bb 65 be 56 c3 0d 3e 0d 67 03 be 7b bf 7e bd
       -0.2243484 0.13844046 -0.1283228 -0.06219433
0000a0 3f 9c 0d 3d 69 f4 82 bd 01 e8 89 3c 2d b2 86 be
       0.034572836 -0.06394274 0.01683426 -0.26307812
0000b0 75 de 6d be e3 35 43 3c 32 09 25 be 63 ad 5e bd
       -0.23229392 0.011914703 -0.16116789 -0.054364573
0000c0 f6 19 dc bd 5c 4e 04 ba 5f 32 d3 bb f5 8a b9 be
       -0.10747139 -0.0005047077 -0.0064452137 -0.36238828
0000d0 28 0a 53 be 2b 65 15 be 03 33 45 be b0 90 e9 3c
       -0.20609343 -0.14589374 -0.1925774 0.028511375
0000e0 89 21 3f 3d 14 aa 30 bd 9a f9 60 3d 46 62 a7 be
       0.04666284 -0.04313095 0.05492554 -0.32692164
0000f0 a3 9d 4e 3d f9 81 7a be 90 58 0f bd 4e a8 74 3d
       0.050443303 -0.24463643 -0.03499657 0.05973082
000100 0f bb 9e bd ba 07 53 3c 5c 54 e5 3d 94 14 48 be
       -0.07750522 0.01288026 0.11197731 -0.195391
000110 b5 53 9d be 2a a7 0c 3d 8a 87 ed bc 91 16 8e bd
       -0.30727926 0.034339108 -0.028995294 -0.06937898
000120 24 9b 5f bd b3 60 7c be b6 41 b8 bd c1 22 8a 3d
       -0.054591313 -0.24646263 -0.08996908 0.0674491
000130 ca 5b fa bd 02 8e f3 bd 30 8a 97 3c 2d 80 08 3e
       -0.122245386 -0.1189232 0.01849851 0.13330145
000140 e3 03 81 3d b5 8a 59 3e ca 6e 21 bd 4a 54 e7 bc
       0.062995695 0.21244319 -0.039412297 -0.028238434
000150 cd 27 97 bc 0c 27 6c bd 40 cb 15 3e 64 26 4a 3c
       -0.018451596 -0.057654426 0.14628315 0.012338255
000160 ed e3 d8 bd 5e d1 86 3b d5 dd ec bd 49 b2 d0 bd
       -0.105903484 0.004114314 -0.115657486 -0.10190255
000170 5a aa ff bc 04 a4 1f 3e e3 d8 84 bd 4d 56 ac be
       -0.03120916 0.15589911 -0.0648668 -0.33659592
000180 b6 b8 80 be 24 66 5d be 7b 3e 22 bd f8 74 21 3e
       -0.25140923 -0.21620995 -0.039610367 0.15767276
000190 fb 76 ae bc a7 3d 34 3e a3 36 54 3d 79 b6 ae 3d
       -0.021296969 0.17601644 0.051809918 0.08530898
0001a0 38 a7 9d bd 38 d1 a9 3e b0 21 b2 bd 40 3e 86 be
       -0.0769791 0.33167434 -0.08697832 -0.26219368
0001b0 11 f3 38 be 69 67 e7 bd bc 57 7e be b2 0e b5 be
       -0.18061472 -0.11299021 -0.24838156 -0.35362774
0001c0 b9 c1 61 be 94 cb 1c 3e 0e 7b a8 be 33 1c 8f be
       -0.22046556 0.15312034 -0.32906383 -0.27951202
0001d0 fc d1 5a be 1a 6a fe 3d ee 0f 85 3e 76 3c 15 be
       -0.21369165 0.12422581 0.25988716 -0.14573845
0001e0 9d 55 60 bd f0 40 aa 3d d6 86 18 3e 05 04 2c 3e
       -0.054769147 0.08313167 0.14895186 0.16798408
0001f0 ce 04 30 3d 18 22 04 bd 66 d3 52 bc 95 eb e7 3d
       0.042973332 -0.032259077 -0.012867784 0.113242306
000200 12 52 11 bc d3 c6 7e 3d 5e e5 4b 3e 1c fa 97 bd
       -0.008869665 0.062201332 0.19911715 -0.074207515
000210 81 fe 6b 3d 12 06 8b 3c 23 15 fb bb c3 00 d9 3c
       0.05761576 0.016970668 -0.007662432 0.026489621
000220 58 0a 61 bd 54 19 92 bd 18 96 f0 bb 05 da a5 3e
       -0.054941505 -0.07133737 -0.0073421113 0.32392898
000230 a9 32 a8 3d 2b 0f 8a bb 23 82 b9 bd 74 7f 49 bc
       0.08212788 -0.004213234 -0.09058025 -0.012298454
000240 8a e6 05 3e 20 34 f0 3c 4d 8b ed 3e 82 ff 8a bd
       0.13076225 0.02932173 0.4639534 -0.067870155
000250 71 a5 81 bd 81 d4 08 3d 2f f8 92 bd 6f ca 05 3e
       -0.063303836 0.033405785 -0.071762435 0.13065504
000260 ce a9 80 3d 9f e3 1a 3e 88 67 c6 3d ce 6d 8a 3c
       0.06282388 0.15125893 0.09687716 0.016898062
000270 59 d4 26 3d e1 ab 12 3d d7 73 1f 3e 67 9d 30 be
       0.040729854 0.035808448 0.15571533 -0.17247544
000280 be f3 bf 3d 45 a7 f3 3c 1a 98 c5 be 85 f4 83 3c
       0.09372662 0.029742846 -0.38592607 0.016107807
000290 5c f5 12 3d aa b5 bf be a1 ce 0a be a3 ab e0 bd
       0.035878524 -0.37443286 -0.13555385 -0.10970237
0002a0 a5 e3 18 bd e5 3e 42 3e b2 f7 f7 bd 59 0d 80 bc
       -0.037326474 0.18969305 -0.12107791 -0.015631365
0002b0 c8 d7 8f 3d 26 ca 86 3d ab 45 b2 bc b4 03 04 3c
       0.07023579 0.065815255 -0.021761736 0.0080575235
0002c0 98 c8 aa 3e a4 b4 0d 3d 2f c3 82 3e 52 60 78 3d
       0.33356166 0.0345961 0.25539538 0.060638733
0002d0 ef 56 b4 bd 23 b7 87 bd 6c cd 90 bd b7 e9 ba bd
       -0.08805644 -0.066267274 -0.07070431 -0.09126609
0002e0 0e 38 13 3e 8b 12 ac bc fb ba 0b bc a1 9d 80 bc
       0.14376852 -0.021004936 -0.008528466 -0.015700163
0002f0 f3 49 33 3d 4b e2 e2 bc 3f 49 cd bc ce 75 15 bd
       0.043771695 -0.027695796 -0.02505934 -0.0364893
000300 db 32 e2 be 4e d3 6d bd 40 97 d8 bd 3f c4 4d bd
       -0.44179425 -0.058062844 -0.10575724 -0.050235983
000310 f6 c9 01 3d 87 e1 32 3e aa 38 11 be c9 8a fc bd
       0.031686746 0.17468844 -0.14181772 -0.12331159
000320 70 f7 6f bd ba a9 10 be ab bf 27 bd 4a 76 9b bd
       -0.058585584 -0.14127246 -0.040954273 -0.07590921
000330 12 05 24 3e 9b e7 5e bd dd 41 b1 3c f6 c8 83 bd
       0.16017559 -0.054420095 0.021637851 -0.06434815
000340 9d 9a 8c 3d 7d 2b b1 bd 1a 50 e5 3d 74 39 fd bb
       0.06865428 -0.08650873 0.11196919 -0.007727796
000350 9c c9 8b bd 96 e9 57 3d 27 db a5 be af 77 b9 bd
       -0.06825563 0.052713 -0.32393762 -0.09056031
000360 8a ce 11 3d b2 dd e2 3d a1 c9 5a bd e4 b3 8e bd
       0.03559736 0.11077441 -0.053414945 -0.06967905
000370 00 77 bc 3c 6a 3c 7c bc 64 37 1b be 53 ef c2 bd
       0.023005962 -0.015395263 -0.15157849 -0.09518304
000380 53 60 14 bd 88 fe 2d 3d 52 f0 d3 bd 17 56 36 3d
       -0.036224674 0.042479068 -0.10348572 0.044515695
000390 36 82 be bc 43 19 b5 be 12 91 5c be e9 1f 5b bd
       -0.023255449 -0.35370836 -0.21539715 -0.05349723
0003a0 ac 6f 91 bb 42 7c c3 3d ca b6 17 bf af 38 55 bd
       -0.004438361 0.09545185 -0.5926329 -0.05205601
0003b0 53 dc 6d bd 43 e2 c4 3d dd c8 d4 bd 97 c9 b6 3c
       -0.058071446 0.096134685 -0.10389874 0.022312922
0003c0 2d 14 50 3d d4 bb 62 bc 8a db 20 bd 87 52 d3 3d
       0.05080049 -0.013838727 -0.03927187 0.10318475
0003d0 c8 df a6 3d 61 7f 19 bc 4d d9 5c bc 4f 06 40 bb
       0.08148152 -0.009368748 -0.013479543 -0.0029300635
0003e0 a2 72 c7 bc 42 e5 0d bd 73 63 d3 3d fc f6 4d bc
       -0.024346653 -0.034642465 0.10321703 -0.012571093
0003f0 dd ed f6 bd 7e c2 37 bd 6f b7 d2 3d f5 22 fc bc
       -0.120570876 -0.044863217 0.102888934 -0.030778388
